…
I1024 18:17:26.545855   175 net.cpp:323] The NetState phase (0) differed from the phase (1) specified by a rule in layer val-data
I1024 18:17:26.545872   175 net.cpp:323] The NetState phase (0) differed from the phase (1) specified by a rule in layer accuracy
I1024 18:17:26.546028   175 net.cpp:52] Initializing net from parameters:
state {
phase: TRAIN
}
layer {
name: "train-data"
type: "Data"
top: "data"
top: "label"
include {
phase: TRAIN
}
transform_param {
mirror: true
crop_size: 227
mean_file: "/opt/DIGITS/digits/jobs/20191024-181453-6c21/mean.binaryproto"
}
data_param {
source: "/opt/DIGITS/digits/jobs/20191024-181453-6c21/train_db"
batch_size: 128
backend: LMDB
}
}
layer {
name: "conv1"
type: "Convolution"
bottom: "data"
top: "conv1"
param {
lr_mult: 1
decay_mult: 1
}
param {
lr_mult: 2
decay_mult: 0
}
convolution_param {
num_output: 96
kernel_size: 11
stride: 4
weight_filler {
type: "gaussian"
std: 0.01
}
bias_filler {
type: "constant"
value: 0
}
}
}
layer {
name: "relu1"
type: "ReLU"
bottom: "conv1"
top: "conv1"
}
layer {
name: "norm1"
type: "LRN"
bottom: "conv1"
top: "norm1"
lrn_param {
local_size: 5
alpha: 0.0001
beta: 0.75
}
}
layer {
name: "pool1"
type: "Pooling"
bottom: "norm1"
top: "pool1"
pooling_param {
pool: MAX
kernel_size: 3
stride: 2
}
}
layer {
name: "conv2"
type: "Convolution"
bottom: "pool1"
top: "conv2"
param {
lr_mult: 1
decay_mult: 1
}
param {
lr_mult: 2
decay_mult: 0
}
convolution_param {
num_output: 256
pad: 2
kernel_size: 5
group: 2
weight_filler {
type: "gaussian"
std: 0.01
}
bias_filler {
type: "constant"
value: 0.1
}
}
}
layer {
name: "relu2"
type: "ReLU"
bottom: "conv2"
top: "conv2"
}
layer {
name: "norm2"
type: "LRN"
bottom: "conv2"
top: "norm2"
lrn_param {
local_size: 5
alpha: 0.0001
beta: 0.75
}
}
layer {
name: "pool2"
type: "Pooling"
bottom: "norm2"
top: "pool2"
pooling_param {
pool: MAX
kernel_size: 3
stride: 2
}
}
layer {
name: "conv3"
type: "Convolution"
bottom: "pool2"
top: "conv3"
param {
lr_mult: 1
decay_mult: 1
}
param {
lr_mult: 2
decay_mult: 0
}
convolution_param {
num_output: 384
pad: 1
kernel_size: 3
weight_filler {
type: "gaussian"
std: 0.01
}
bias_filler {
type: "constant"
value: 0
}
}
}
layer {
name: "relu3"
type: "ReLU"
bottom: "conv3"
top: "conv3"
}
layer {
name: "conv4"
type: "Convolution"
bottom: "conv3"
top: "conv4"
param {
lr_mult: 1
decay_mult: 1
}
param {
lr_mult: 2
decay_mult: 0
}
convolution_param {
num_output: 384
pad: 1
kernel_size: 3
group: 2
weight_filler {
type: "gaussian"
std: 0.01
}
bias_filler {
type: "constant"
value: 0.1
}
}
}
layer {
name: "relu4"
type: "ReLU"
bottom: "conv4"
top: "conv4"
}
layer {
name: "conv5"
type: "Convolution"
bottom: "conv4"
top: "conv5"
param {
lr_mult: 1
decay_mult: 1
}
param {
lr_mult: 2
decay_mult: 0
}
convolution_param {
num_output: 256
pad: 1
kernel_size: 3
group: 2
weight_filler {
type: "gaussian"
std: 0.01
}
bias_filler {
type: "constant"
value: 0.1
}
}
}
layer {
name: "relu5"
type: "ReLU"
bottom: "conv5"
top: "conv5"
}
layer {
name: "pool5"
type: "Pooling"
bottom: "conv5"
top: "pool5"
pooling_param {
pool: MAX
kernel_size: 3
stride: 2
}
}
layer {
name: "fc6"
type: "InnerProduct"
bottom: "pool5"
top: "fc6"
param {
lr_mult: 1
decay_mult: 1
}
param {
lr_mult: 2
decay_mult: 0
}
inner_product_param {
num_output: 4096
weight_filler {
type: "gaussian"
std: 0.005
}
bias_filler {
type: "constant"
value: 0.1
}
}
}
layer {
name: "relu6"
type: "ReLU"
bottom: "fc6"
top: "fc6"
}
layer {
name: "drop6"
type: "Dropout"
bottom: "fc6"
top: "fc6"
dropout_param {
dropout_ratio: 0.5
}
}
layer {
name: "fc7"
type: "InnerProduct"
bottom: "fc6"
top: "fc7"
param {
lr_mult: 1
decay_mult: 1
}
param {
lr_mult: 2
decay_mult: 0
}
inner_product_param {
num_output: 4096
weight_filler {
type: "gaussian"
std: 0.005
}
bias_filler {
type: "constant"
value: 0.1
}
}
}
layer {
name: "relu7"
type: "ReLU"
bottom: "fc7"
top: "fc7"
}
layer {
name: "drop7"
type: "Dropout"
bottom: "fc7"
top: "fc7"
dropout_param {
dropout_ratio: 0.5
}
}
layer {
name: "fc8"
type: "InnerProduct"
bottom: "fc7"
top: "fc8"
param {
lr_mult: 1
decay_mult: 1
}
param {
lr_mult: 2
decay_mult: 0
}
inner_product_param {
num_output: 3
weight_filler {
type: "gaussian"
std: 0.01
}
bias_filler {
type: "constant"
value: 0
}
}
}
layer {
name: "loss"
type: "SoftmaxWithLoss"
bottom: "fc8"
bottom: "label"
top: "loss"
}
I1024 18:17:26.546231   175 layer_factory.hpp:77] Creating layer train-data
I1024 18:17:26.547143   175 net.cpp:94] Creating Layer train-data
I1024 18:17:26.547222   175 net.cpp:409] train-data -> data
I1024 18:17:26.547271   175 net.cpp:409] train-data -> label
I1024 18:17:26.548024   175 data_transformer.cpp:25] Loading mean file from: /opt/DIGITS/digits/jobs/20191024-181453-6c21/mean.binaryproto
I1024 18:17:26.548099   178 db_lmdb.cpp:35] Opened lmdb /opt/DIGITS/digits/jobs/20191024-181453-6c21/train_db
I1024 18:17:26.563387   175 data_layer.cpp:78] ReshapePrefetch 128, 3, 227, 227
I1024 18:17:26.563493   175 data_layer.cpp:83] output data size: 128,3,227,227
I1024 18:17:26.757253   175 net.cpp:144] Setting up train-data
I1024 18:17:26.757302   175 net.cpp:151] Top shape: 128 3 227 227 (19787136)
I1024 18:17:26.757306   175 net.cpp:151] Top shape: 128 (128)
I1024 18:17:26.757309   175 net.cpp:159] Memory required for data: 79149056
I1024 18:17:26.757325   175 layer_factory.hpp:77] Creating layer conv1
I1024 18:17:26.757447   175 net.cpp:94] Creating Layer conv1
I1024 18:17:26.757457   175 net.cpp:435] conv1 <- data
I1024 18:17:26.757473   175 net.cpp:409] conv1 -> conv1
I1024 18:17:26.758538   175 net.cpp:144] Setting up conv1
I1024 18:17:26.758551   175 net.cpp:151] Top shape: 128 96 55 55 (37171200)
I1024 18:17:26.758555   175 net.cpp:159] Memory required for data: 227833856
I1024 18:17:26.758574   175 layer_factory.hpp:77] Creating layer relu1
I1024 18:17:26.758611   175 net.cpp:94] Creating Layer relu1
I1024 18:17:26.758616   175 net.cpp:435] relu1 <- conv1
I1024 18:17:26.758622   175 net.cpp:396] relu1 -> conv1 (in-place)
I1024 18:17:26.758638   175 net.cpp:144] Setting up relu1
I1024 18:17:26.758643   175 net.cpp:151] Top shape: 128 96 55 55 (37171200)
I1024 18:17:26.758646   175 net.cpp:159] Memory required for data: 376518656
I1024 18:17:26.758651   175 layer_factory.hpp:77] Creating layer norm1
I1024 18:17:26.758661   175 net.cpp:94] Creating Layer norm1
I1024 18:17:26.758663   175 net.cpp:435] norm1 <- conv1
I1024 18:17:26.758668   175 net.cpp:409] norm1 -> norm1
I1024 18:17:26.758749   175 net.cpp:144] Setting up norm1
I1024 18:17:26.758756   175 net.cpp:151] Top shape: 128 96 55 55 (37171200)
I1024 18:17:26.758759   175 net.cpp:159] Memory required for data: 525203456
I1024 18:17:26.758762   175 layer_factory.hpp:77] Creating layer pool1
I1024 18:17:26.758819   175 net.cpp:94] Creating Layer pool1
I1024 18:17:26.758839   175 net.cpp:435] pool1 <- norm1
I1024 18:17:26.758846   175 net.cpp:409] pool1 -> pool1
I1024 18:17:26.758893   175 net.cpp:144] Setting up pool1
I1024 18:17:26.758901   175 net.cpp:151] Top shape: 128 96 27 27 (8957952)
I1024 18:17:26.758904   175 net.cpp:159] Memory required for data: 561035264
I1024 18:17:26.758908   175 layer_factory.hpp:77] Creating layer conv2
I1024 18:17:26.758918   175 net.cpp:94] Creating Layer conv2
I1024 18:17:26.758920   175 net.cpp:435] conv2 <- pool1
I1024 18:17:26.758926   175 net.cpp:409] conv2 -> conv2
I1024 18:17:26.770265   175 net.cpp:144] Setting up conv2
I1024 18:17:26.770344   175 net.cpp:151] Top shape: 128 256 27 27 (23887872)
I1024 18:17:26.770350   175 net.cpp:159] Memory required for data: 656586752
I1024 18:17:26.770364   175 layer_factory.hpp:77] Creating layer relu2
I1024 18:17:26.770392   175 net.cpp:94] Creating Layer relu2
I1024 18:17:26.770400   175 net.cpp:435] relu2 <- conv2
I1024 18:17:26.770409   175 net.cpp:396] relu2 -> conv2 (in-place)
I1024 18:17:26.770423   175 net.cpp:144] Setting up relu2
I1024 18:17:26.770433   175 net.cpp:151] Top shape: 128 256 27 27 (23887872)
I1024 18:17:26.770439   175 net.cpp:159] Memory required for data: 752138240
I1024 18:17:26.770445   175 layer_factory.hpp:77] Creating layer norm2
I1024 18:17:26.770455   175 net.cpp:94] Creating Layer norm2
I1024 18:17:26.770462   175 net.cpp:435] norm2 <- conv2
I1024 18:17:26.770471   175 net.cpp:409] norm2 -> norm2
I1024 18:17:26.770577   175 net.cpp:144] Setting up norm2
I1024 18:17:26.770591   175 net.cpp:151] Top shape: 128 256 27 27 (23887872)
I1024 18:17:26.770596   175 net.cpp:159] Memory required for data: 847689728
I1024 18:17:26.770601   175 layer_factory.hpp:77] Creating layer pool2
I1024 18:17:26.770614   175 net.cpp:94] Creating Layer pool2
I1024 18:17:26.770618   175 net.cpp:435] pool2 <- norm2
I1024 18:17:26.770627   175 net.cpp:409] pool2 -> pool2
I1024 18:17:26.770678   175 net.cpp:144] Setting up pool2
I1024 18:17:26.770702   175 net.cpp:151] Top shape: 128 256 13 13 (5537792)
I1024 18:17:26.770709   175 net.cpp:159] Memory required for data: 869840896
I1024 18:17:26.770776   175 layer_factory.hpp:77] Creating layer conv3
I1024 18:17:26.770793   175 net.cpp:94] Creating Layer conv3
I1024 18:17:26.770800   175 net.cpp:435] conv3 <- pool2
I1024 18:17:26.770813   175 net.cpp:409] conv3 -> conv3
I1024 18:17:26.785974   175 net.cpp:144] Setting up conv3
I1024 18:17:26.785995   175 net.cpp:151] Top shape: 128 384 13 13 (8306688)
I1024 18:17:26.786000   175 net.cpp:159] Memory required for data: 903067648
I1024 18:17:26.786018   175 layer_factory.hpp:77] Creating layer relu3
I1024 18:17:26.786028   175 net.cpp:94] Creating Layer relu3
I1024 18:17:26.786033   175 net.cpp:435] relu3 <- conv3
I1024 18:17:26.786041   175 net.cpp:396] relu3 -> conv3 (in-place)
I1024 18:17:26.786051   175 net.cpp:144] Setting up relu3
I1024 18:17:26.786059   175 net.cpp:151] Top shape: 128 384 13 13 (8306688)
I1024 18:17:26.786063   175 net.cpp:159] Memory required for data: 936294400
I1024 18:17:26.786068   175 layer_factory.hpp:77] Creating layer conv4
I1024 18:17:26.786082   175 net.cpp:94] Creating Layer conv4
I1024 18:17:26.786087   175 net.cpp:435] conv4 <- conv3
I1024 18:17:26.786096   175 net.cpp:409] conv4 -> conv4
I1024 18:17:26.797998   175 net.cpp:144] Setting up conv4
I1024 18:17:26.798022   175 net.cpp:151] Top shape: 128 384 13 13 (8306688)
I1024 18:17:26.798028   175 net.cpp:159] Memory required for data: 969521152
I1024 18:17:26.798038   175 layer_factory.hpp:77] Creating layer relu4
I1024 18:17:26.798049   175 net.cpp:94] Creating Layer relu4
I1024 18:17:26.798055   175 net.cpp:435] relu4 <- conv4
I1024 18:17:26.798087   175 net.cpp:396] relu4 -> conv4 (in-place)
I1024 18:17:26.798100   175 net.cpp:144] Setting up relu4
I1024 18:17:26.798108   175 net.cpp:151] Top shape: 128 384 13 13 (8306688)
I1024 18:17:26.798113   175 net.cpp:159] Memory required for data: 1002747904
I1024 18:17:26.798120   175 layer_factory.hpp:77] Creating layer conv5
I1024 18:17:26.798133   175 net.cpp:94] Creating Layer conv5
I1024 18:17:26.798139   175 net.cpp:435] conv5 <- conv4
I1024 18:17:26.798149   175 net.cpp:409] conv5 -> conv5
I1024 18:17:26.806512   175 net.cpp:144] Setting up conv5
I1024 18:17:26.806535   175 net.cpp:151] Top shape: 128 256 13 13 (5537792)
I1024 18:17:26.806540   175 net.cpp:159] Memory required for data: 1024899072
I1024 18:17:26.806555   175 layer_factory.hpp:77] Creating layer relu5
I1024 18:17:26.806565   175 net.cpp:94] Creating Layer relu5
I1024 18:17:26.806571   175 net.cpp:435] relu5 <- conv5
I1024 18:17:26.806579   175 net.cpp:396] relu5 -> conv5 (in-place)
I1024 18:17:26.806591   175 net.cpp:144] Setting up relu5
I1024 18:17:26.806597   175 net.cpp:151] Top shape: 128 256 13 13 (5537792)
I1024 18:17:26.806602   175 net.cpp:159] Memory required for data: 1047050240
I1024 18:17:26.806607   175 layer_factory.hpp:77] Creating layer pool5
I1024 18:17:26.806617   175 net.cpp:94] Creating Layer pool5
I1024 18:17:26.806622   175 net.cpp:435] pool5 <- conv5
I1024 18:17:26.806630   175 net.cpp:409] pool5 -> pool5
I1024 18:17:26.806697   175 net.cpp:144] Setting up pool5
I1024 18:17:26.806707   175 net.cpp:151] Top shape: 128 256 6 6 (1179648)
I1024 18:17:26.806712   175 net.cpp:159] Memory required for data: 1051768832
I1024 18:17:26.806718   175 layer_factory.hpp:77] Creating layer fc6
I1024 18:17:26.806741   175 net.cpp:94] Creating Layer fc6
I1024 18:17:26.806747   175 net.cpp:435] fc6 <- pool5
I1024 18:17:26.806756   175 net.cpp:409] fc6 -> fc6
I1024 18:17:27.551079   175 net.cpp:144] Setting up fc6
I1024 18:17:27.551112   175 net.cpp:151] Top shape: 128 4096 (524288)
I1024 18:17:27.551116   175 net.cpp:159] Memory required for data: 1053865984
I1024 18:17:27.551127   175 layer_factory.hpp:77] Creating layer relu6
I1024 18:17:27.551139   175 net.cpp:94] Creating Layer relu6
I1024 18:17:27.551144   175 net.cpp:435] relu6 <- fc6
I1024 18:17:27.551153   175 net.cpp:396] relu6 -> fc6 (in-place)
I1024 18:17:27.551168   175 net.cpp:144] Setting up relu6
I1024 18:17:27.551173   175 net.cpp:151] Top shape: 128 4096 (524288)
I1024 18:17:27.551177   175 net.cpp:159] Memory required for data: 1055963136
I1024 18:17:27.551180   175 layer_factory.hpp:77] Creating layer drop6
I1024 18:17:27.551192   175 net.cpp:94] Creating Layer drop6
I1024 18:17:27.551196   175 net.cpp:435] drop6 <- fc6
I1024 18:17:27.551203   175 net.cpp:396] drop6 -> fc6 (in-place)
I1024 18:17:27.551232   175 net.cpp:144] Setting up drop6
I1024 18:17:27.551239   175 net.cpp:151] Top shape: 128 4096 (524288)
I1024 18:17:27.551241   175 net.cpp:159] Memory required for data: 1058060288
I1024 18:17:27.551245   175 layer_factory.hpp:77] Creating layer fc7
I1024 18:17:27.551254   175 net.cpp:94] Creating Layer fc7
I1024 18:17:27.551257   175 net.cpp:435] fc7 <- fc6
I1024 18:17:27.551265   175 net.cpp:409] fc7 -> fc7
I1024 18:17:27.756168   175 net.cpp:144] Setting up fc7
I1024 18:17:27.756217   175 net.cpp:151] Top shape: 128 4096 (524288)
I1024 18:17:27.756222   175 net.cpp:159] Memory required for data: 1060157440
I1024 18:17:27.756234   175 layer_factory.hpp:77] Creating layer relu7
I1024 18:17:27.756248   175 net.cpp:94] Creating Layer relu7
I1024 18:17:27.756254   175 net.cpp:435] relu7 <- fc7
I1024 18:17:27.756264   175 net.cpp:396] relu7 -> fc7 (in-place)
I1024 18:17:27.756281   175 net.cpp:144] Setting up relu7
I1024 18:17:27.756286   175 net.cpp:151] Top shape: 128 4096 (524288)
I1024 18:17:27.756290   175 net.cpp:159] Memory required for data: 1062254592
I1024 18:17:27.756294   175 layer_factory.hpp:77] Creating layer drop7
I1024 18:17:27.756304   175 net.cpp:94] Creating Layer drop7
I1024 18:17:27.756307   175 net.cpp:435] drop7 <- fc7
I1024 18:17:27.756353   175 net.cpp:396] drop7 -> fc7 (in-place)
I1024 18:17:27.756379   175 net.cpp:144] Setting up drop7
I1024 18:17:27.756387   175 net.cpp:151] Top shape: 128 4096 (524288)
I1024 18:17:27.756390   175 net.cpp:159] Memory required for data: 1064351744
I1024 18:17:27.756394   175 layer_factory.hpp:77] Creating layer fc8
I1024 18:17:27.756405   175 net.cpp:94] Creating Layer fc8
I1024 18:17:27.756409   175 net.cpp:435] fc8 <- fc7
I1024 18:17:27.756417   175 net.cpp:409] fc8 -> fc8
I1024 18:17:27.757450   175 net.cpp:144] Setting up fc8
I1024 18:17:27.757463   175 net.cpp:151] Top shape: 128 3 (384)
I1024 18:17:27.757467   175 net.cpp:159] Memory required for data: 1064353280
I1024 18:17:27.757474   175 layer_factory.hpp:77] Creating layer loss
I1024 18:17:27.757483   175 net.cpp:94] Creating Layer loss
I1024 18:17:27.757488   175 net.cpp:435] loss <- fc8
I1024 18:17:27.757503   175 net.cpp:435] loss <- label
I1024 18:17:27.757516   175 net.cpp:409] loss -> loss
I1024 18:17:27.759197   175 layer_factory.hpp:77] Creating layer loss
…
I1024 18:17:27.759950   175 solver.cpp:181] Creating test net (#0) specified by net file: train_val.prototxt
I1024 18:17:27.759992   175 net.cpp:323] The NetState phase (1) differed from the phase (0) specified by a rule in layer train-data
I1024 18:17:27.760126   175 net.cpp:52] Initializing net from parameters:
state {
phase: TEST
}
layer {
name: "val-data"
type: "Data"
top: "data"
top: "label"
include {
phase: TEST
}
transform_param {
crop_size: 227
mean_file: "/opt/DIGITS/digits/jobs/20191024-181453-6c21/mean.binaryproto"
}
data_param {
source: "/opt/DIGITS/digits/jobs/20191024-181453-6c21/val_db"
batch_size: 32
backend: LMDB
}
}
layer {
name: "conv1"
type: "Convolution"
bottom: "data"
top: "conv1"
param {
lr_mult: 1
decay_mult: 1
}
param {
lr_mult: 2
decay_mult: 0
}
convolution_param {
num_output: 96
kernel_size: 11
stride: 4
weight_filler {
type: "gaussian"
std: 0.01
}
bias_filler {
type: "constant"
value: 0
}
}
}
layer {
name: "relu1"
type: "ReLU"
bottom: "conv1"
top: "conv1"
}
layer {
name: "norm1"
type: "LRN"
bottom: "conv1"
top: "norm1"
lrn_param {
local_size: 5
alpha: 0.0001
beta: 0.75
}
}
layer {
name: "pool1"
type: "Pooling"
bottom: "norm1"
top: "pool1"
pooling_param {
pool: MAX
kernel_size: 3
stride: 2
}
}
layer {
name: "conv2"
type: "Convolution"
bottom: "pool1"
top: "conv2"
param {
lr_mult: 1
decay_mult: 1
}
param {
lr_mult: 2
decay_mult: 0
}
convolution_param {
num_output: 256
pad: 2
kernel_size: 5
group: 2
weight_filler {
type: "gaussian"
std: 0.01
}
bias_filler {
type: "constant"
value: 0.1
}
}
}
layer {
name: "relu2"
type: "ReLU"
bottom: "conv2"
top: "conv2"
}
layer {
name: "norm2"
type: "LRN"
bottom: "conv2"
top: "norm2"
lrn_param {
local_size: 5
alpha: 0.0001
beta: 0.75
}
}
layer {
name: "pool2"
type: "Pooling"
bottom: "norm2"
top: "pool2"
pooling_param {
pool: MAX
kernel_size: 3
stride: 2
}
}
layer {
name: "conv3"
type: "Convolution"
bottom: "pool2"
top: "conv3"
param {
lr_mult: 1
decay_mult: 1
}
param {
lr_mult: 2
decay_mult: 0
}
convolution_param {
num_output: 384
pad: 1
kernel_size: 3
weight_filler {
type: "gaussian"
std: 0.01
}
bias_filler {
type: "constant"
value: 0
}
}
}
layer {
name: "relu3"
type: "ReLU"
bottom: "conv3"
top: "conv3"
}
layer {
name: "conv4"
type: "Convolution"
bottom: "conv3"
top: "conv4"
param {
lr_mult: 1
decay_mult: 1
}
param {
lr_mult: 2
decay_mult: 0
}
convolution_param {
num_output: 384
pad: 1
kernel_size: 3
group: 2
weight_filler {
type: "gaussian"
std: 0.01
}
bias_filler {
type: "constant"
value: 0.1
}
}
}
layer {
name: "relu4"
type: "ReLU"
bottom: "conv4"
top: "conv4"
}
layer {
name: "conv5"
type: "Convolution"
bottom: "conv4"
top: "conv5"
param {
lr_mult: 1
decay_mult: 1
}
param {
lr_mult: 2
decay_mult: 0
}
convolution_param {
num_output: 256
pad: 1
kernel_size: 3
group: 2
weight_filler {
type: "gaussian"
std: 0.01
}
bias_filler {
type: "constant"
value: 0.1
}
}
}
layer {
name: "relu5"
type: "ReLU"
bottom: "conv5"
top: "conv5"
}
layer {
name: "pool5"
type: "Pooling"
bottom: "conv5"
top: "pool5"
pooling_param {
pool: MAX
kernel_size: 3
stride: 2
}
}
layer {
name: "fc6"
type: "InnerProduct"
bottom: "pool5"
top: "fc6"
param {
lr_mult: 1
decay_mult: 1
}
param {
lr_mult: 2
decay_mult: 0
}
inner_product_param {
num_output: 4096
weight_filler {
type: "gaussian"
std: 0.005
}
bias_filler {
type: "constant"
value: 0.1
}
}
}
layer {
name: "relu6"
type: "ReLU"
bottom: "fc6"
top: "fc6"
}
layer {
name: "drop6"
type: "Dropout"
bottom: "fc6"
top: "fc6"
dropout_param {
dropout_ratio: 0.5
}
}
layer {
name: "fc7"
type: "InnerProduct"
bottom: "fc6"
top: "fc7"
param {
lr_mult: 1
decay_mult: 1
}
param {
lr_mult: 2
decay_mult: 0
}
inner_product_param {
num_output: 4096
weight_filler {
type: "gaussian"
std: 0.005
}
bias_filler {
type: "constant"
value: 0.1
}
}
}
layer {
name: "relu7"
type: "ReLU"
bottom: "fc7"
top: "fc7"
}
layer {
name: "drop7"
type: "Dropout"
bottom: "fc7"
top: "fc7"
dropout_param {
dropout_ratio: 0.5
}
}
layer {
name: "fc8"
type: "InnerProduct"
bottom: "fc7"
top: "fc8"
param {
lr_mult: 1
decay_mult: 1
}
param {
lr_mult: 2
decay_mult: 0
}
inner_product_param {
num_output: 3
weight_filler {
type: "gaussian"
std: 0.01
}
bias_filler {
type: "constant"
value: 0
}
}
}
layer {
name: "accuracy"
type: "Accuracy"
bottom: "fc8"
bottom: "label"
top: "accuracy"
include {
phase: TEST
}
}
layer {
name: "loss"
type: "SoftmaxWithLoss"
bottom: "fc8"
bottom: "label"
top: "loss"
}
I1024 18:17:27.760294   175 layer_factory.hpp:77] Creating layer val-data
I1024 18:17:27.760670   175 net.cpp:94] Creating Layer val-data
I1024 18:17:27.760690   175 net.cpp:409] val-data -> data
I1024 18:17:27.760704   175 net.cpp:409] val-data -> label
I1024 18:17:27.760715   175 data_transformer.cpp:25] Loading mean file from: /opt/DIGITS/digits/jobs/20191024-181453-6c21/mean.binaryproto
I1024 18:17:27.761471   184 db_lmdb.cpp:35] Opened lmdb /opt/DIGITS/digits/jobs/20191024-181453-6c21/val_db
I1024 18:17:27.767499   175 data_layer.cpp:78] ReshapePrefetch 32, 3, 227, 227
I1024 18:17:27.767565   175 data_layer.cpp:83] output data size: 32,3,227,227
I1024 18:17:27.806179   175 net.cpp:144] Setting up val-data
I1024 18:17:27.806210   175 net.cpp:151] Top shape: 32 3 227 227 (4946784)
I1024 18:17:27.806216   175 net.cpp:151] Top shape: 32 (32)
I1024 18:17:27.806219   175 net.cpp:159] Memory required for data: 19787264
I1024 18:17:27.806226   175 layer_factory.hpp:77] Creating layer label_val-data_1_split
I1024 18:17:27.806249   175 net.cpp:94] Creating Layer label_val-data_1_split
I1024 18:17:27.806254   175 net.cpp:435] label_val-data_1_split <- label
I1024 18:17:27.806264   175 net.cpp:409] label_val-data_1_split -> label_val-data_1_split_0
I1024 18:17:27.806275   175 net.cpp:409] label_val-data_1_split -> label_val-data_1_split_1
I1024 18:17:27.806366   175 net.cpp:144] Setting up label_val-data_1_split
I1024 18:17:27.806375   175 net.cpp:151] Top shape: 32 (32)
I1024 18:17:27.806378   175 net.cpp:151] Top shape: 32 (32)
I1024 18:17:27.806381   175 net.cpp:159] Memory required for data: 19787520
I1024 18:17:27.806385   175 layer_factory.hpp:77] Creating layer conv1
I1024 18:17:27.806399   175 net.cpp:94] Creating Layer conv1
I1024 18:17:27.806403   175 net.cpp:435] conv1 <- data
I1024 18:17:27.806411   175 net.cpp:409] conv1 -> conv1
I1024 18:17:27.807139   175 net.cpp:144] Setting up conv1
I1024 18:17:27.807152   175 net.cpp:151] Top shape: 32 96 55 55 (9292800)
I1024 18:17:27.807155   175 net.cpp:159] Memory required for data: 56958720
I1024 18:17:27.807166   175 layer_factory.hpp:77] Creating layer relu1
I1024 18:17:27.807173   175 net.cpp:94] Creating Layer relu1
I1024 18:17:27.807178   175 net.cpp:435] relu1 <- conv1
I1024 18:17:27.807183   175 net.cpp:396] relu1 -> conv1 (in-place)
I1024 18:17:27.807193   175 net.cpp:144] Setting up relu1
I1024 18:17:27.807196   175 net.cpp:151] Top shape: 32 96 55 55 (9292800)
I1024 18:17:27.807199   175 net.cpp:159] Memory required for data: 94129920
I1024 18:17:27.807202   175 layer_factory.hpp:77] Creating layer norm1
I1024 18:17:27.807210   175 net.cpp:94] Creating Layer norm1
I1024 18:17:27.807214   175 net.cpp:435] norm1 <- conv1
I1024 18:17:27.807219   175 net.cpp:409] norm1 -> norm1
I1024 18:17:27.807283   175 net.cpp:144] Setting up norm1
I1024 18:17:27.807291   175 net.cpp:151] Top shape: 32 96 55 55 (9292800)
I1024 18:17:27.807294   175 net.cpp:159] Memory required for data: 131301120
I1024 18:17:27.807297   175 layer_factory.hpp:77] Creating layer pool1
I1024 18:17:27.807305   175 net.cpp:94] Creating Layer pool1
I1024 18:17:27.807308   175 net.cpp:435] pool1 <- norm1
I1024 18:17:27.807314   175 net.cpp:409] pool1 -> pool1
I1024 18:17:27.807672   175 net.cpp:144] Setting up pool1
I1024 18:17:27.807684   175 net.cpp:151] Top shape: 32 96 27 27 (2239488)
I1024 18:17:27.807687   175 net.cpp:159] Memory required for data: 140259072
I1024 18:17:27.807691   175 layer_factory.hpp:77] Creating layer conv2
I1024 18:17:27.807701   175 net.cpp:94] Creating Layer conv2
I1024 18:17:27.807705   175 net.cpp:435] conv2 <- pool1
I1024 18:17:27.807713   175 net.cpp:409] conv2 -> conv2
I1024 18:17:27.811746   175 net.cpp:144] Setting up conv2
I1024 18:17:27.811764   175 net.cpp:151] Top shape: 32 256 27 27 (5971968)
I1024 18:17:27.811766   175 net.cpp:159] Memory required for data: 164146944
I1024 18:17:27.811775   175 layer_factory.hpp:77] Creating layer relu2
I1024 18:17:27.811782   175 net.cpp:94] Creating Layer relu2
I1024 18:17:27.811785   175 net.cpp:435] relu2 <- conv2
I1024 18:17:27.811791   175 net.cpp:396] relu2 -> conv2 (in-place)
I1024 18:17:27.811800   175 net.cpp:144] Setting up relu2
I1024 18:17:27.811805   175 net.cpp:151] Top shape: 32 256 27 27 (5971968)
I1024 18:17:27.811807   175 net.cpp:159] Memory required for data: 188034816
I1024 18:17:27.811810   175 layer_factory.hpp:77] Creating layer norm2
I1024 18:17:27.811818   175 net.cpp:94] Creating Layer norm2
I1024 18:17:27.811822   175 net.cpp:435] norm2 <- conv2
I1024 18:17:27.811828   175 net.cpp:409] norm2 -> norm2
I1024 18:17:27.814432   175 net.cpp:144] Setting up norm2
I1024 18:17:27.814453   175 net.cpp:151] Top shape: 32 256 27 27 (5971968)
I1024 18:17:27.814460   175 net.cpp:159] Memory required for data: 211922688
I1024 18:17:27.814466   175 layer_factory.hpp:77] Creating layer pool2
I1024 18:17:27.814478   175 net.cpp:94] Creating Layer pool2
I1024 18:17:27.814484   175 net.cpp:435] pool2 <- norm2
I1024 18:17:27.814494   175 net.cpp:409] pool2 -> pool2
I1024 18:17:27.814551   175 net.cpp:144] Setting up pool2
I1024 18:17:27.814564   175 net.cpp:151] Top shape: 32 256 13 13 (1384448)
I1024 18:17:27.814570   175 net.cpp:159] Memory required for data: 217460480
I1024 18:17:27.814590   175 layer_factory.hpp:77] Creating layer conv3
I1024 18:17:27.814604   175 net.cpp:94] Creating Layer conv3
I1024 18:17:27.814610   175 net.cpp:435] conv3 <- pool2
I1024 18:17:27.814620   175 net.cpp:409] conv3 -> conv3
I1024 18:17:27.830790   175 net.cpp:144] Setting up conv3
I1024 18:17:27.830813   175 net.cpp:151] Top shape: 32 384 13 13 (2076672)
I1024 18:17:27.830819   175 net.cpp:159] Memory required for data: 225767168
I1024 18:17:27.830834   175 layer_factory.hpp:77] Creating layer relu3
I1024 18:17:27.830845   175 net.cpp:94] Creating Layer relu3
I1024 18:17:27.830852   175 net.cpp:435] relu3 <- conv3
I1024 18:17:27.830860   175 net.cpp:396] relu3 -> conv3 (in-place)
I1024 18:17:27.830873   175 net.cpp:144] Setting up relu3
I1024 18:17:27.830880   175 net.cpp:151] Top shape: 32 384 13 13 (2076672)
I1024 18:17:27.830885   175 net.cpp:159] Memory required for data: 234073856
I1024 18:17:27.830890   175 layer_factory.hpp:77] Creating layer conv4
I1024 18:17:27.830904   175 net.cpp:94] Creating Layer conv4
I1024 18:17:27.830909   175 net.cpp:435] conv4 <- conv3
I1024 18:17:27.830917   175 net.cpp:409] conv4 -> conv4
I1024 18:17:27.843847   175 net.cpp:144] Setting up conv4
I1024 18:17:27.843868   175 net.cpp:151] Top shape: 32 384 13 13 (2076672)
I1024 18:17:27.843873   175 net.cpp:159] Memory required for data: 242380544
I1024 18:17:27.843883   175 layer_factory.hpp:77] Creating layer relu4
I1024 18:17:27.843891   175 net.cpp:94] Creating Layer relu4
I1024 18:17:27.843897   175 net.cpp:435] relu4 <- conv4
I1024 18:17:27.843906   175 net.cpp:396] relu4 -> conv4 (in-place)
I1024 18:17:27.843917   175 net.cpp:144] Setting up relu4
I1024 18:17:27.843924   175 net.cpp:151] Top shape: 32 384 13 13 (2076672)
I1024 18:17:27.843928   175 net.cpp:159] Memory required for data: 250687232
I1024 18:17:27.843935   175 layer_factory.hpp:77] Creating layer conv5
I1024 18:17:27.843947   175 net.cpp:94] Creating Layer conv5
I1024 18:17:27.843952   175 net.cpp:435] conv5 <- conv4
I1024 18:17:27.843961   175 net.cpp:409] conv5 -> conv5
I1024 18:17:27.851943   175 net.cpp:144] Setting up conv5
I1024 18:17:27.851963   175 net.cpp:151] Top shape: 32 256 13 13 (1384448)
I1024 18:17:27.851969   175 net.cpp:159] Memory required for data: 256225024
I1024 18:17:27.851982   175 layer_factory.hpp:77] Creating layer relu5
I1024 18:17:27.851991   175 net.cpp:94] Creating Layer relu5
I1024 18:17:27.851997   175 net.cpp:435] relu5 <- conv5
I1024 18:17:27.852037   175 net.cpp:396] relu5 -> conv5 (in-place)
I1024 18:17:27.852051   175 net.cpp:144] Setting up relu5
I1024 18:17:27.852057   175 net.cpp:151] Top shape: 32 256 13 13 (1384448)
I1024 18:17:27.852062   175 net.cpp:159] Memory required for data: 261762816
I1024 18:17:27.852067   175 layer_factory.hpp:77] Creating layer pool5
I1024 18:17:27.852079   175 net.cpp:94] Creating Layer pool5
I1024 18:17:27.852084   175 net.cpp:435] pool5 <- conv5
I1024 18:17:27.852092   175 net.cpp:409] pool5 -> pool5
I1024 18:17:27.852144   175 net.cpp:144] Setting up pool5
I1024 18:17:27.852154   175 net.cpp:151] Top shape: 32 256 6 6 (294912)
I1024 18:17:27.852159   175 net.cpp:159] Memory required for data: 262942464
I1024 18:17:27.852164   175 layer_factory.hpp:77] Creating layer fc6
I1024 18:17:27.852174   175 net.cpp:94] Creating Layer fc6
I1024 18:17:27.852180   175 net.cpp:435] fc6 <- pool5
I1024 18:17:27.852188   175 net.cpp:409] fc6 -> fc6
I1024 18:17:28.354218   175 net.cpp:144] Setting up fc6
I1024 18:17:28.354261   175 net.cpp:151] Top shape: 32 4096 (131072)
I1024 18:17:28.354265   175 net.cpp:159] Memory required for data: 263466752
I1024 18:17:28.354277   175 layer_factory.hpp:77] Creating layer relu6
I1024 18:17:28.354288   175 net.cpp:94] Creating Layer relu6
I1024 18:17:28.354293   175 net.cpp:435] relu6 <- fc6
I1024 18:17:28.354302   175 net.cpp:396] relu6 -> fc6 (in-place)
I1024 18:17:28.354317   175 net.cpp:144] Setting up relu6
I1024 18:17:28.354321   175 net.cpp:151] Top shape: 32 4096 (131072)
I1024 18:17:28.354324   175 net.cpp:159] Memory required for data: 263991040
I1024 18:17:28.354327   175 layer_factory.hpp:77] Creating layer drop6
I1024 18:17:28.354336   175 net.cpp:94] Creating Layer drop6
I1024 18:17:28.354338   175 net.cpp:435] drop6 <- fc6
I1024 18:17:28.354344   175 net.cpp:396] drop6 -> fc6 (in-place)
I1024 18:17:28.354382   175 net.cpp:144] Setting up drop6
I1024 18:17:28.354387   175 net.cpp:151] Top shape: 32 4096 (131072)
I1024 18:17:28.354389   175 net.cpp:159] Memory required for data: 264515328
I1024 18:17:28.354393   175 layer_factory.hpp:77] Creating layer fc7
I1024 18:17:28.354401   175 net.cpp:94] Creating Layer fc7
I1024 18:17:28.354404   175 net.cpp:435] fc7 <- fc6
I1024 18:17:28.354411   175 net.cpp:409] fc7 -> fc7
I1024 18:17:28.563133   175 net.cpp:144] Setting up fc7
I1024 18:17:28.563182   175 net.cpp:151] Top shape: 32 4096 (131072)
I1024 18:17:28.563186   175 net.cpp:159] Memory required for data: 265039616
I1024 18:17:28.563199   175 layer_factory.hpp:77] Creating layer relu7
I1024 18:17:28.563210   175 net.cpp:94] Creating Layer relu7
I1024 18:17:28.563215   175 net.cpp:435] relu7 <- fc7
I1024 18:17:28.563225   175 net.cpp:396] relu7 -> fc7 (in-place)
I1024 18:17:28.563241   175 net.cpp:144] Setting up relu7
I1024 18:17:28.563244   175 net.cpp:151] Top shape: 32 4096 (131072)
I1024 18:17:28.563248   175 net.cpp:159] Memory required for data: 265563904
I1024 18:17:28.563251   175 layer_factory.hpp:77] Creating layer drop7
I1024 18:17:28.563258   175 net.cpp:94] Creating Layer drop7
I1024 18:17:28.563262   175 net.cpp:435] drop7 <- fc7
I1024 18:17:28.563267   175 net.cpp:396] drop7 -> fc7 (in-place)
I1024 18:17:28.563295   175 net.cpp:144] Setting up drop7
I1024 18:17:28.563310   175 net.cpp:151] Top shape: 32 4096 (131072)
I1024 18:17:28.563313   175 net.cpp:159] Memory required for data: 266088192
I1024 18:17:28.563318   175 layer_factory.hpp:77] Creating layer fc8
I1024 18:17:28.563326   175 net.cpp:94] Creating Layer fc8
I1024 18:17:28.563329   175 net.cpp:435] fc8 <- fc7
I1024 18:17:28.563336   175 net.cpp:409] fc8 -> fc8
I1024 18:17:28.563551   175 net.cpp:144] Setting up fc8
I1024 18:17:28.563560   175 net.cpp:151] Top shape: 32 3 (96)
I1024 18:17:28.563562   175 net.cpp:159] Memory required for data: 266088576
I1024 18:17:28.563567   175 layer_factory.hpp:77] Creating layer fc8_fc8_0_split
I1024 18:17:28.563575   175 net.cpp:94] Creating Layer fc8_fc8_0_split
I1024 18:17:28.563580   175 net.cpp:435] fc8_fc8_0_split <- fc8
I1024 18:17:28.563585   175 net.cpp:409] fc8_fc8_0_split -> fc8_fc8_0_split_0
I1024 18:17:28.563653   175 net.cpp:409] fc8_fc8_0_split -> fc8_fc8_0_split_1
I1024 18:17:28.563691   175 net.cpp:144] Setting up fc8_fc8_0_split
I1024 18:17:28.563697   175 net.cpp:151] Top shape: 32 3 (96)
I1024 18:17:28.563700   175 net.cpp:151] Top shape: 32 3 (96)
I1024 18:17:28.563704   175 net.cpp:159] Memory required for data: 266089344
I1024 18:17:28.563707   175 layer_factory.hpp:77] Creating layer accuracy
I1024 18:17:28.563726   175 net.cpp:94] Creating Layer accuracy
I1024 18:17:28.563730   175 net.cpp:435] accuracy <- fc8_fc8_0_split_0
I1024 18:17:28.563735   175 net.cpp:435] accuracy <- label_val-data_1_split_0
I1024 18:17:28.563741   175 net.cpp:409] accuracy -> accuracy
…
